saved_models/model.pth (torch, 14760 bytes, 7 tensors)

g_1.0.weight f4 [32, 1, 5, 5]
0.17025705 -0.01759234 -0.07919993 -0.12341306 0.1391048 0.19924285 -0.19465388 -0.027011205
-0.10804504 0.11350901 0.172121 0.21296136 -0.028499378 -0.03607075 0.07777558 -0.18713705
-0.122161545 0.044634543 0.12842098 -0.09623254 -0.1563224 0.09748863 0.10993876 -0.15757318
0.12930872 0.08728354 -0.11670027 -0.10423332 0.11440776 0.06758018 0.00579831 0.11314403
0.078422524 -0.19046897 -0.08030703 0.026314333 0.30206642 -0.18131539 0.08026168 -0.1731826
-0.1111351 -0.038241174 -0.05838411 0.029747885 -0.0056516984 0.06951846 0.024414198 -0.08326439
-0.17129473 0.07029732 0.17827542 0.19110508 0.10791214 0.12311949 -0.048476174 0.12599929
0.060595084 -0.116756774 0.1618111 0.12652472 0.0039470494 0.03380859 0.09278848 -0.068420365
0.13210942 -0.12684739 0.0985974 0.078820765 -0.21260965 -0.11345499 -0.1142649 0.20841764
-0.22907676 -0.27842933 -0.29952934 0.18372802 -0.1537575 0.0134816915 -0.16913655 0.18432204
0.040232807 0.017354455 -0.1359412 0.11452316 -0.12539907 0.12931325 -0.09391566 0.016985731
-0.07670635 -0.019682512 0.11602746 0.12449225 0.17744906 -0.0982139 0.14682585 0.13785987
-0.003090136 0.012061592 -0.022691559 0.020198347 -0.06757906 -0.13942483 -0.13768494 -0.17732914
-0.19416419 -0.08727179 -0.009855899 0.014493107 -0.093829624 0.029423505 -0.15295109 -0.10961252
-0.003965149 -0.082540885 -0.070951566 -0.026246712 -0.03958011 0.018246341 -0.011969373 0.0045819995
-0.031915545 -0.14411043 -0.038241223 -0.12881002 -0.050566174 0.16716029 -0.1506676 -0.089063
0.112081304 0.16648431 -0.14608476 0.01872739 0.038674 -0.113892294 0.031337008 -0.18625422
-0.18686648 -0.10893761 -0.09053694 0.11066877 -0.16869065 -0.008897987 -0.058919914 0.20163593
0.026216868 -0.00012819469 0.09450419 -0.03903749 -0.10839644 0.14412053 -0.16234675 0.1370904
0.18846543 -0.084777765 -0.020193458 0.108052835 -0.15914837 -0.045408998 -0.14289851 0.0016572675
-0.067326516 -0.02081561 -0.022950483 0.017316442 0.032558747 -0.09666526 -0.15204997 -0.0118008815
-0.12968409 -0.122077525 0.16043909 0.012717075 -0.121478215 -0.022394052 -0.04994089 0.06809212
-0.19801818 -0.069898054 -0.09615784 -0.071409434 -0.17449446 0.010625989 0.049016353 -0.17435165
-0.051693507 -0.058255598 0.034013785 0.108535156 -0.07049756 -0.20094854 -0.08645244 -0.042561196
-0.013210769 0.16770849 -0.18560216 0.19474532 -0.088394985 -0.16472007 -0.15861087 -0.11236332
-0.14225337 0.18026425 -0.028170183 -0.16280535 0.16972859 0.15227045 -0.14488435 0.042731356
0.061958585 -0.008487743 -0.15248315 0.03262671 -0.19253173 0.05531066 -0.08905659 -0.08019586
0.11585408 -0.018416613 -0.121839985 -0.033589788 0.012985349 0.11028867 -0.038469102 -0.14887021
-0.27466342 -0.0031830817 -0.1813458 -0.016509056 0.16648869 -0.14468391 -0.096307114 0.11248516
0.12170387 -0.20562038 0.122088656 -0.085916616 -0.012485451 -0.19360441 -0.01755475 0.13622823
-0.19911078 0.077959776 -0.0090535525 -0.0293589 -0.09436288 -0.028939605 -0.014551961 0.2208032
-0.18336655 0.15198866 0.17714281 -0.07303898 -0.1308881 -0.059586838 -0.090340786 0.02484119
00000000: dd57 2e3e d01d 90bc 9333 a2bd fdbf fcbd
00000010: 7d71 0e3e 5106 4c3e 5953 47be 9a46 ddbc
00000020: b846 ddbd 6977 e83d 7d40 303e 8b12 5a3e
00000030: 8777 e9bc ecbe 13bd ce48 9f3d dba0 3fbe
00000040: d52f fabd b6d2 363d ca80 033e 9115 c5bd
00000050: fb12 20be 1ea8 c73d 9327 e13d dd5a 21be
00000060: 8169 043e b6c1 b23d 8d00 efbd 4778 d5bd
00000070: 9e4e ea3d 7a67 8a3d c0ff bd3b 0fb8 e73d
00000080: fd9b a03d 4c0a 43be 0378 a4bd 2891 d73c
00000090: 73a8 9a3e beaa 39be 3c60 a43d c856 31be
000000a0: cd9a e3bd c7a2 1cbd 2d24 6fbd d6b1 f33c
000000b0: e231 b9bb b25f 8e3d 4900 c83c 8586 aabd
000000c0: e367 2fbe 0bf8 8f3d d58d 363e 0db1 433e
000000d0: 0a01 dd3d 1226 fc3d f48e 46bd f505 013e
000000e0: 8d32 783d 2d1e efbd cfb1 253e b28f 013e
000000f0: 4056 813b e07a 0a3d e307 be3d fa1f 8cbd
00000100: b147 073e 48e4 01be 6fed c93d c86c a13d
00000110: 58b6 59be 175b e8bd b703 eabd 6f6b 553e
00000120: 1993 6abe 4a8e 8ebe e95b 99be 3323 3c3e
00000130: 9b72 1dbe 50e2 5c3c 2232 2dbe ebbe 3c3e
00000140: 28cb 243d ee2a 8e3c 2c34 0bbe 1e8b ea3d
00000150: 9d68 00be b16a 043e db56 c0bd a925 8b3c
00000160: 3818 9dbd 383d a1bc ce9f ed3d cbf5 fe3d
00000170: 35b5 353e 5f24 c9bd 8459 163e 232b 0d3e
00000180: e183 4abb fc9d 453c a6e3 b9bc 0177 a53c
00000190: e466 8abd 62c5 0ebe 48fd 0cbe c595 35be
000001a0: fad2 46be 8dbb b2bd a37a 21bc 7f74 6d3c
000001b0: bf29 c0bd 9009 f13c 369f 1cbe 877c e0bd
000001c0: 15ee 81bb 320b a9bd 0e4f 91bd 5803 d7bc
000001d0: c11e 22bd 5a79 953c 301b 44bc 9924 963b
000001e0: e0b9 02bd af91 13be d4a2 1cbd c6e6 03be
000001f0: 7a1e 4fbd 112c 2b3e 9b48 1abe aa66 b6bd
00000200: e28a e53d dd7a 2a3e 3e97 15be 2f6a 993c
00000210: a168 1e3d 5d40 e9bd 3c5b 003d 6db9 3ebe
00000220: ed59 3fbe af1a dfbd 6e6b b9bd 4fa6 e23d
00000230: 3ebd 2cbe ddc8 11bc 0256 71bd a679 4e3e
00000240: c2c4 d63c 006c 06b9 6a8b c13d c6e5 1fbd
00000250: f4fe ddbd 5594 133e 3a3e 26be 6d61 0c3e
00000260: 15fd 403e f79f adbd c06c a5bc ce4a dd3d
00000270: caf7 22be c9fe 39bd fd53 12be ab38 d93a
00000280: 7ce2 89bd 8085 aabc a702 bcbc 36db 8d3c
00000290: 525c 053d 70f8 c5bd fdb2 1bbe 7c58 41bc
000002a0: e8cb 04be c803 fabd 254a 243e 475b 503c
000002b0: 92c9 f8bd bb73 b7bc d28e 4cbd e273 8b3d
000002c0: 47c5 4abe b626 8fbd 67ee c4bd 1c3f 92bd
000002d0: adae 32be a118 2e3c 5fc5 483d 3d89 32be
000002e0: 92bc 53bd 6c9d 6ebd 0a52 0b3d ae47 de3d
000002f0: 0661 90bd 74c5 4dbe fa0d b1bd a654 2ebd
00000300: fb71 58bc c6bb 2b3e 7e0e 3ebe 516b 473e
00000310: 6e08 b5bd 61ac 28be e36a 22be be1e e6bd
00000320: deaa 11be 3197 383e 28c5 e6bc 72b6 26be
00000330: 55cd 2d3e c9ec 1b3e 905c 14be 1307 2f3d
00000340: 49c8 7d3d 2d10 0bbc 8b24 1cbe 96a3 053d
00000350: 0a27 45be 6e8d 623d 4d63 b6bd ba3d a4bd
00000360: e744 ed3d 70de 96bc 3e87 f9bd 7295 09bd
00000370: 80c0 543c 07df e13d c791 1dbd 6f71 18be
00000380: afa0 8cbe 409b 50bb b7b2 39be 003e 87bc
00000390: 037c 2a3e 0528 14be aa3c c5bd 9f5e e63d
000003a0: e13f f93d 268e 52be 9e09 fa3d 0df5 afbd
000003b0: c78f 4cbc 3c40 46be fbce 8fbc 6a7f 0b3e
000003c0: b2e3 4bbe 60a9 9f3d 5a55 14bc 1382 f0bc
000003d0: 5341 c1bd c012 edbc 596b 6ebc 3c1a 623e
000003e0: 71c4 3bbe eaa2 1b3e ed64 353e 7695 95bd
000003f0: 8807 06be 5411 74bd 9704 b9bd c07f cb3c

g_1.0.bias f4 [32]
-0.022012929 -0.07736821 -0.088354304 0.117570944 -0.20907685 0.01915418 -0.2644901 -0.031231137
-0.045370404 0.21372296 0.15697874 -0.17842191 0.09385474 -0.095722385 -0.16889077 -0.05997993
-0.23056802 0.046511117 0.21971476 0.16060169 -0.052301854 0.11396914 0.060235493 -0.18814513
-0.16325065 -0.0023158432 -0.07936649 0.07370726 -0.006308444 0.029018825 0.038281843 0.11737
00000000: 7554 b4bc 3973 9ebd 1af3 b4bd 09c9 f03d
00000010: 3e18 56be 3ae9 9c3c 3f6b 87be 71d8 ffbc
00000020: 51d6 39bd 31da 5a3e 09bf 203e 3cb4 36be
00000030: ea36 c03d 190a c4bd b4f1 2cbe 84ad 75bd
00000040: 061a 6cbe 7182 3e3d e8fc 603e c574 243e
00000050: 783a 56bd a768 e93d 7eb9 763d 1ea9 40be
00000060: 2e2b 27be 67c5 17bb e68a a2bd d5f3 963d
00000070: 10b7 cebb e3b8 ed3c 6ccd 1c3d af5f f03d

g_1.3.weight f4 [32]
1.0989687 1.1812384 1.1346653 1.1632442 1.4642833 1.2392336 1.5915731 1.296005
1.2043487 1.2217827 1.1828301 1.2670679 1.3528445 1.237094 1.1325479 1.1251193
1.4768883 1.2290866 1.3000877 1.1315763 1.1457732 1.1617218 1.2986419 1.3525659
1.1000208 1.1947674 1.192284 1.2455864 1.2363429 1.3635653 1.2700157 1.2584059
00000000: 02ab 8c3f d232 973f b63c 913f 30e5 943f
00000010: a36d bb3f 359f 9e3f abb8 cb3f 7ee3 a53f
00000020: 1928 9a3f 6063 9c3f fa66 973f 482f a23f
00000030: 022a ad3f 1959 9e3f 54f7 903f e903 903f
00000040: ad0a bd3f b652 9d3f 4669 a63f 7ed7 903f
00000050: b2a8 923f 4db3 943f e639 a63f e120 ad3f
00000060: 7bcd 8c3f 23ee 983f c39c 983f 606f 9f3f
00000070: 7c40 9e3f 4f89 ae3f e08f a23f 7213 a13f

g_1.3.bias f4 [32]
0.6272828 1.1067564 1.0860288 0.7420543 -0.43421343 0.57737064 -0.7999721 0.81288
-0.7261347 0.9459597 0.64344287 -0.64304245 0.9145803 -0.76233095 0.8848419 0.74835443
-0.72821856 0.33517584 0.5140263 1.0414398 0.8984799 0.7118523 -1.2173287 -0.8175827
0.438703 0.87176675 0.6021254 -1.1946706 0.7986481 0.6658952 0.78797317 0.51097083
00000000: 9b95 203f 32aa 8d3f fe02 8b3f 45f7 3d3f
00000010: 3951 debe 90ce 133f f9ca 4cbf e718 503f
00000020: f7e3 39bf 6a2a 723f acb8 243f 6e9e 24bf
00000030: ef21 6a3f 1f28 43bf 0085 623f 2894 3f3f
00000040: 886c 3abf 2b9c ab3e 3a97 033f e64d 853f
00000050: c702 663f f43b 363f 6dd1 9bbf 1a4d 51bf
00000060: ae9d e03e 1b2c 5f3f e424 1a3f f7ea 98bf
00000070: 3474 4c3f 1c78 2a3f 9cb8 493f fcce 023f

g_1.3.running_mean f4 [32]
0.17293017 0.18982932 0.32392877 0.24300173 0.011885035 0.22233324 0.011044726 0.24177864
0.23607302 0.3493546 0.33826038 0.14927107 0.34812748 0.27350873 0.09002726 0.08711671
0.008976776 0.25903398 0.35213968 0.31605753 0.3827708 0.25783157 0.33315712 0.048525855
0.091062695 0.22456576 0.108989164 0.30930814 0.17968513 0.16701642 0.23305285 0.23975523
00000000: 9b14 313e 9e62 423e fed9 a53e 72d5 783e
00000010: 73b9 423c 53ab 633e f0f4 343c d294 773e
00000020: 20bd 713e 9bde b23e 7730 ad3e 84da 183e
00000030: c43d b23e 5609 8c3e 3660 b83d 3f6a b23d
00000040: 5413 133c 1aa0 843e a74b b43e 4bd2 a13e
00000050: 89fa c33e 8002 843e 9293 aa3e 0cc3 463d
00000060: 147f ba3d 91f4 653e b635 df3d a35d 9e3e
00000070: 61ff 373e 5a06 2b3e 68a5 6e3e 6582 753e

g_1.3.running_var f4 [32]
0.048355903 0.036188588 0.053597756 0.03996589 9.8556724e-05 0.04064257 8.547461e-05 0.015108624
0.021948708 0.0278975 0.03645353 0.012862415 0.04278813 0.02476116 0.008628092 0.015292748
5.5892215e-05 0.043700695 0.011890876 0.045236465 0.41964668 0.106274426 0.03471249 0.0017084916
0.031221673 0.021970829 0.011117903 0.016804997 0.015776236 0.022101888 0.024146808 0.035255168
00000000: d710 463d 7c3a 143d 5289 5b3d 46b3 233d
00000010: 3db0 ce38 d378 263d d540 b338 298a 773c
00000020: c7cd b33c 4c89 e43c 4c50 153d e1bc 523c
00000030: 9b42 2f3d ebd7 ca3c d75c 0d3c 6f8e 7a3c
00000040: cf6d 6a38 80ff 323d f3d1 423c df49 393d
00000050: eedb d63e 68a6 d93d af2e 0e3d 77ef df3a
00000060: 98c4 ff3c 2bfc b33c dd27 363c a2aa 893c
00000070: 2a3d 813c 050f b53c 87cf c53c b967 103d

g_2.weight f4 [64, 32]
-0.2533712 -0.33166337 -0.04326694 -0.3154774 0.20963205 -0.12653032 0.31919426 -0.19610953
0.33757222 -0.16470212 -0.115970775 0.17171487 -0.122330114 0.32295203 -0.3206463 -0.024061581
0.09452957 -0.07488387 -0.016308328 -0.20765533 -0.192165 -0.04103128 0.12431413 0.35089886
-0.25104648 -0.30947408 -0.37308168 0.29747 -0.29660973 -0.17047995 -0.23547778 -0.07151963
-0.22162701 -0.254688 -0.11441041 -0.28668424 0.3478717 -0.07498726 0.34465644 -0.18070151
0.26304448 -0.045033757 -0.16746786 0.07387632 -0.16031829 0.33604568 -0.28748652 -0.18654272
0.04205169 -0.13137808 -0.2846373 -0.19833614 -0.16314428 -0.14539586 0.21726644 0.28609174
-0.2254459 -0.2769498 -0.21418156 0.19642995 -0.09558792 -0.17682202 -0.10844215 -0.047791366
-0.15917741 -0.21715239 -0.12358031 -0.20611793 0.1137612 -0.12037125 0.14863999 -0.1788303
0.35053763 -0.37663832 -0.34908605 0.12144199 -0.2412107 0.35345867 -0.10856493 -0.2551541
0.25486994 -0.125001 -0.139219 -0.04495569 -0.053887427 -0.2502786 0.2928597 0.32912952
-0.09794797 -0.32700804 -0.21270452 0.15446824 -0.18457355 -0.050288294 -0.13368708 -0.20645854
-0.0051731034 -0.1635232 -0.15642107 -0.1490182 0.21076375 -0.11174194 0.15166438 -0.32062533
0.209823 -0.1410499 -0.029522268 0.31192285 -0.05036128 0.18156011 -0.2702822 -0.2609132
0.3677078 -0.11727744 -0.09172936 -0.30720404 -0.16899775 -0.22758731 0.3591465 0.30391493
-0.084338576 -0.2805072 -0.16617751 0.28044596 -0.23447934 -0.084964655 -0.2104529 -0.115485005
-0.27909887 -0.097290926 -0.1383946 -0.2236268 0.25471267 -0.16465868 0.11775007 -0.18745129
0.17815441 -0.27568156 -0.33364576 0.3175388 -0.16874811 0.065972775 -0.13918163 -0.19026819
0.34761193 -0.19316222 0.0011455617 -0.14534594 -0.12919804 -0.015322995 0.252677 0.25198773
-0.067644216 -0.23227271 -0.35507676 0.30189723 -0.211943 -0.21250916 -0.12639515 -0.2582844
-0.27633005 -0.34778386 -0.3422622 -0.1726077 0.30552286 -0.372244 0.17388254 -0.1269372
0.111297056 -0.30868936 -0.19907326 0.3063345 -0.14245437 0.23222654 -0.13416742 -0.14479803
0.2814415 -0.1015954 -0.044124525 -0.16091877 -0.041815475 -0.06434973 0.10013941 0.29822227
-0.019041238 -0.26440004 -0.13313487 0.3578307 -0.08556906 -0.034771565 -0.016875336 -0.25706455
-0.21851985 -0.33185092 -0.18432185 -0.17831476 0.16725796 -0.19571033 0.2353958 -0.1958918
0.33702374 -0.10150847 -0.22344764 0.35173157 -0.22922295 0.32300216 -0.24842414 -0.105198935
0.21154273 0.03538423 -0.0582659 -0.04547443 -0.28682533 -0.07514196 0.35019425 0.08785532
-0.0037035416 -0.1048383 -0.31147563 0.19568425 -0.18400817 -0.33520514 -0.32735068 -0.187584
-0.03501555 -0.18700962 -0.07150719 -0.1338572 0.28391156 -0.15323786 0.1469477 -0.0997007
0.2466679 -0.21296236 -0.35170317 0.1404158 -0.035138853 0.3835916 -0.28446347 -0.31286266
0.3494888 -0.11070431 -0.033231698 -0.23897418 -0.031484973 -0.23048286 0.3861634 0.12954846
-0.08827059 -0.33295822 -0.20052493 0.27272165 -0.0740037 -0.30463952 -0.11075569 -0.17674415
00000000: dfb9 81be c8cf a9be ad38 31bd 4186 a1be
00000010: c9a9 563e 2a91 01be 6e6d a33e f0d0 48be
00000020: 44d6 ac3e aca7 28be 1682 edbd 06d6 2f3e
00000030: 3688 fabd f859 a53e c02b a4be cb1c c5bc
00000040: b898 c13d b75c 99bd 0b99 85bc 99a3 54be
00000050: e7c6 44be 6a10 28bd 6898 fe3d 04a9 b33e
00000060: 2a89 80be 6373 9ebe 9004 bfbe fd4d 983e
00000070: 3bdd 97be 4c92 2ebe 1621 71be e278 92bd
00000080: 31f2 62be 7766 82be 0150 eabd 47c8 92be
00000090: 3d1c b23e ec92 99bd cf76 b03e d109 39be
000000a0: c4ad 863e 5175 38bd b27c 2bbe 784c 973d
000000b0: 7a2a 24be 2e0e ac3e 6f31 93be 0e05 3fbe
000000c0: 653e 2c3d fa87 06be fbbb 91be a118 4bbe
000000d0: 4b0f 27be a7e2 14be 187b 5e3e 9e7a 923e
000000e0: 4adb 66be 5dcc 8dbe 6952 5bbe ef24 493e
000000f0: 99c3 c3bd d510 35be eb16 debd e1c0 43bd
00000100: 67ff 22be 325d 5ebe ac17 fdbd 9410 53be
00000110: a2fb e83d 3485 f6bd 1535 183e 4a1f 37be
00000120: ab79 b33e bdd6 c0be 68bb b2be 94b6 f83d
00000130: f0ff 76be 89f8 b43e 4a57 debd 8fa3 82be
00000140: 507e 823e 4300 00be 6d8f 0ebe 7523 38bd
00000150: 10b9 5cbd 8424 80be b5f1 953e aa83 a83e
00000160: f298 c8bd 996d a7be 37cf 59be ec2c 1e3e
00000170: d900 3dbe 19fb 4dbd 44e5 08be de69 53be
00000180: 2383 a9bb a072 27be d82c 20be 3a98 18be
00000190: 74d2 573e f5d8 e4bd e84d 1b3e 0129 a4be
000001a0: d7db 563e 636f 10be afd8 f1bc 5ab4 9f3e
000001b0: a147 4ebd e5ea 393e 6e62 8abe 6a96 85be
000001c0: 3244 bc3e 282f f0bd 9adc bbbd d949 9dbe
000001d0: bf0d 2dbe a60c 69be 0de2 b73e bd9a 9b3e
000001e0: b4b9 acbd a49e 8fbe 702a 2abe 9d96 8f3e
000001f0: 5a1b 70be f301 aebd f780 57be 6783 ecbd
00000200: 0ce6 8ebe 7740 c7bd 50b7 0dbe 6dfe 64be
00000210: b369 823e 499c 28be f326 f13d 3bf3 3fbe
00000220: 1c6e 363e 2226 8dbe 9ed3 aabe 7294 a23e
00000230: 4ecc 2cbe bc1c 873d a185 0ebe aad5 42be
00000240: 31fa b13e 51cc 45be ac26 963a 91d5 14be
00000250: 7e4c 04be 4d0d 7bbc e15e 813e 8904 813e
00000260: 0d89 8abd e6d8 6dbe 9fcc b5be 4692 9a3e
00000270: 9607 59be 009c 59be bb6d 01be da3d 84be
00000280: 227b 8dbe ba10 b2be fe3c afbe 13c0 30be
00000290: 7e6d 9c3e c496 bebe 440e 323e d3fb 01be
000002a0: b6ef e33d 880c 9ebe dcd9 4bbe e0d7 9c3e
000002b0: 8fdf 11be cbcc 6d3e 2f63 09be ef45 14be
000002c0: 1a19 903e 4011 d0bd ebbb 34bd e4c7 24be
000002d0: b446 2bbd cbc9 83bd e415 cd3d 97b0 983e
000002e0: 5ffc 9bbc 715f 87be 8254 08be 9635 b73e
000002f0: d53e afbd a16c 0ebd 253e 8abc f79d 83be
00000300: abc3 5fbe 5de8 a9be debe 3cbe 2598 36be
00000310: ac45 2b3e 4a68 48be 990b 713e dc97 48be
00000320: 608e ac3e ace3 cfbd 75cf 64be 2916 b43e
00000330: 6cb9 6abe 8a60 a53e e662 7ebe 8a72 d7bd
00000340: a89e 583e 0eef 103d 39a8 6ebd 6543 3abd
00000350: c5da 92be 07e4 99bd a94c b33e 7ded b33d
00000360: 1eb7 72bb 76b5 d6bd bc79 9fbe 7461 483e
00000370: a36c 3cbe 02a0 abbe 829a a7be 0516 40be
00000380: 776c 0fbd 737f 3fbe 5d72 92bd dd11 09be
00000390: db5c 913e 63ea 1cbe 7579 163e e12f ccbd
000003a0: 8396 7c3e ce12 5abe 7012 b4be 29c9 0f3e
000003b0: c2ed 0fbd 1e66 c43e 32a5 91be 892f a0be
000003c0: 32f0 b23e f1b8 e2bd f61d 08bd a6b5 74be
000003d0: 63f6 00bd b303 6cbe 36b7 c53e 5aa8 043e
000003e0: 36c7 b4bd 8079 aabe 6856 4dbe 2ca2 8b3e
000003f0: 408f 97bd b6f9 9bbe e1d3 e2bd 6bfc 34be
