uncertainy/saved_models/model.pth (torch, 20392 bytes, 6 tensors)

fc1.weight f4 [64, 1]
0	0xbf2f4407	-0.68463176
1	0x3f4a4c3b	0.7902257
2	0xbf560327	-0.8359856
3	0xbeac2966	-0.33625335
4	0x3f721a7b	0.94571656
5	0xbef314ae	-0.47476715
6	0x3f7c9195	0.9865964
7	0x3e0a1923	0.13486151
8	0x3eab1c76	0.3342015
9	0x3f7249c1	0.9464379
10	0x3da5d82a	0.08097871
11	0xbf694749	-0.911244
12	0x3f25c35f	0.6475124
13	0xbe9068ae	-0.28204864
14	0xbf5e78dd	-0.8690317
15	0x3e9abda2	0.30222803
16	0x3ecd6af2	0.40120655
17	0x3e9a2e4e	0.30113453
18	0xbf6b8e13	-0.92013663
19	0xbf579c19	-0.8422256
20	0xbf4a3bc1	-0.7899743
21	0x3f120d61	0.57051665
22	0xbf321f8b	-0.6957938
23	0x3efda3e6	0.49539107
24	0xbf079e2f	-0.52975744
25	0x3f7b2ca1	0.98114973
26	0xbe8e868e	-0.27837032
27	0xbf142d9b	-0.5788209
28	0xbe05897d	-0.13040729
29	0x3ea86ebe	0.3289699
30	0xbdae1fd6	-0.08502166
31	0x3d9e6b1a	0.07735272
32	0xbf6319eb	-0.8871142
33	0xbcdf12e6	-0.027230691
34	0xbe93e39e	-0.28884596
35	0xbf5e382d	-0.8680447
36	0xbe8f2956	-0.27961224
37	0xbf00a28d	-0.5024803
38	0xbeed923e	-0.46400636
39	0xbea8456e	-0.3286547
40	0xbf053b95	-0.5204404
41	0x3f174a0d	0.5909737
42	0xbf570807	-0.83996624
43	0xbf1a4495	-0.602609
44	0x3f1cd3ef	0.61260885
45	0xbf76c031	-0.9638701
46	0xbf7e065b	-0.9922845
47	0xbf638e61	-0.8888913
48	0xbea47d42	-0.32126814
49	0x3a8e7193	0.0010867588
50	0xbe1a0a65	-0.15043028
51	0x3c0c01cd	0.008545351
52	0xbe802146	-0.25025386
53	0x3daa90c6	0.083283946
54	0x3f384b6b	0.7199008
55	0x3f545695	0.82944614
56	0xbf2e7d9d	-0.6816042
57	0xbe7ad225	-0.24494226
58	0xbe25faad	-0.16208906
59	0xbf1686db	-0.58799523
60	0xbf10ac41	-0.5651284
61	0x3e87b4be	0.26505083
62	0x3f69d19f	0.9133548
63	0xbf271853	-0.6527149

fc1.bias f4 [64]
0	0x3f2b92ed	0.67021066
1	0xbe1ef165	-0.15521772
2	0x3f738493	0.9512417
3	0xbe29c7c5	-0.16580112
4	0x3f590da9	0.8478647
5	0xbf35be0b	-0.7099311
6	0x3f3e2301	0.7427216
7	0x3ed27e6e	0.41112083
8	0x3f64704b	0.89233845
9	0x3e9d5156	0.30726117
10	0x3f626b37	0.88444847
11	0x3f0740e3	0.52833384
12	0xbf4edcdd	-0.8080576
13	0xbe34097d	-0.17581744
14	0xbb93c765	-0.0045098537
15	0xbe886942	-0.26642805
16	0x3ecef8ba	0.40424138
17	0x3f6b47af	0.91906255
18	0xbf71f9d7	-0.9452185
19	0xbec21f9e	-0.37914747
20	0xbf41c2b9	-0.7568775
21	0xbf1786db	-0.5919015
22	0x3f787341	0.97050864
23	0xbe47718d	-0.1947691
24	0x3e686d7b	0.22698013
25	0x3edc12bc	0.42983043
26	0xbf7caeb9	-0.98704106
27	0xbea2a912	-0.31769615
28	0xbf269ee1	-0.6508618
29	0xbf1c5419	-0.6106582
30	0x3f427569	0.75960404
31	0xbb5cc6e5	-0.0033687886
32	0xbdedb9f6	-0.11607735
33	0x3f44ef21	0.7692738
34	0xbf65f291	-0.8982325
35	0x3d884642	0.066540256
36	0x3f5ce437	0.8628573
37	0x3f321073	0.6955635
38	0x3f021451	0.5081225
39	0xbf2a05b1	-0.66414934
40	0xbe2d414d	-0.16919442
41	0xbed79556	-0.42106122
42	0xbebd2d72	-0.36948735
43	0x3e559254	0.20856601
44	0xbecb3ea6	-0.39696234
45	0x3f2a05d1	0.66415125
46	0xbe3f5b53	-0.18687181
47	0x3f449067	0.7678284
48	0x3f566951	0.8375445
49	0x3f543bc9	0.82903725
50	0x3f7eac09	0.99481255
51	0x3ed5a7c2	0.41729552
52	0xbec6cd3a	-0.3882845
53	0xbe050d8d	-0.1299345
54	0xbe483afd	-0.19553752
55	0xbf2d71cb	-0.6775176
56	0xbe1444c3	-0.14479356
57	0x3f664557	0.89949554
58	0xbed2dbca	-0.4118331
59	0x3f19c781	0.60070044
60	0xbe8e2636	-0.27763528
61	0x3f7bb283	0.9831926
62	0x3f4b0ccf	0.7931642
63	0x3d75a2e5	0.0599698

fc2.weight f4 [64, 64]
0	0x3dafae88	0.08578211
1	0xbc33d2f0	-0.010975584
2	0xbdef1846	-0.11674552
3	0x3d89af0a	0.06722839
4	0xbde4530c	-0.111486524
5	0xbdcf10ac	-0.10110602
6	0x3df2421e	0.11829017
7	0x3d8ad468	0.067787945
8	0xbd871d31	-0.06597365
9	0xbd658880	-0.05603838
10	0x3cb8a3da	0.022539068
11	0x3d88949e	0.066689715
12	0x3d02b464	0.031910315
13	0x3dce4434	0.100716025
14	0xbd727b0f	-0.05919939
15	0x3d8e4b70	0.06947982
16	0x3d2fd868	0.04293099
17	0xbd4d7040	-0.050155878
18	0x3b21f08a	0.0024710023
19	0xbba17f1b	-0.004928482
20	0xbe003b9b	-0.12522738
21	0x3d643a28	0.055719525
22	0xbdc16034	-0.094421774
23	0x3d150350	0.036380112
24	0x3d262135	0.040559012
25	0xbdd26a5c	-0.10274193
26	0x3debe531	0.11518324
27	0x3dbd0df8	0.0923118
28	0xbdc760b4	-0.097352415
29	0xbc999c30	-0.018751234
30	0xbd0b15d3	-0.03395636
31	0x3d7cf178	0.06175372
32	0x3d212609	0.039342914
33	0xbd176137	-0.036957946
34	0x3d0678cd	0.03283005
35	0x3d7e4d5d	0.062085498
36	0x3d8561fe	0.06512831
37	0x3d31273d	0.04325031
38	0x3df22336	0.11823122
39	0x3c864ba2	0.016393486
40	0xbc4463cd	-0.011986685
41	0x3d2e1c74	0.042507604
42	0x3d93ad80	0.07210827
43	0x3d7ac9d5	0.06122764
44	0x3c8a0288	0.01684691
45	0x3be456a5	0.0069683366
46	0xbdd2241e	-0.10260795
47	0xbd8d56fe	-0.06901358
48	0x3d3d0001	0.04614258
49	0xbd3c89ff	-0.04603004
50	0xbcd4387f	-0.025905846
51	0xbda9b554	-0.08286539
52	0x3da86330	0.082220435
53	0xbb4bdb00	-0.0031105876
54	0x3deafc88	0.11473948
55	0xbdb7d79c	-0.08976671
56	0x3da9889c	0.08278009
57	0xbcdc9717	-0.026927514
58	0x3db58c8f	0.088647
59	0x3de17a84	0.11009696
60	0x3d77539d	0.060382474
61	0x3d3460a3	0.044037472
62	0xbd31b657	-0.043386783
63	0xbb302ef6	-0.002688346
64	0xbd430abf	-0.04761767
65	0x3df50c26	0.11965208
66	0x3da703e8	0.08155042
67	0x3c9bc791	0.01901606
68	0x3c800531	0.015627475
69	0xbcae551f	-0.021280823
70	0xbda5fa24	-0.08104351
71	0xbd379667	-0.04482117
72	0xbd54c1d3	-0.051942658
73	0xbd64508f	-0.05574089
74	0xbdb952a6	-0.09048967
75	0xbd14a067	-0.036285784
76	0xbe003f74	-0.12524205
77	0x3de57f74	0.112059504
78	0xbcd12fef	-0.025535552
79	0xbbaedfb9	-0.0053367284
80	0xbd296bef	-0.0413627
81	0xbd89dbfc	-0.06731412
82	0x3cb90379	0.022584664
83	0xbd5c8eb7	-0.05384704
84	0x3d7ddfa1	0.061980847
85	0x3d98591e	0.07438873
86	0xbdd99fbe	-0.106261715
87	0x3da0b4fc	0.0784702
88	0xbe00bb61	-0.1257148
89	0x3dcc724e	0.099827394
90	0xbcd60f46	-0.02613033
91	0x3d4cfd79	0.050046418
92	0xbde24c0f	-0.11049663
93	0xbd990242	-0.07471134
94	0xbde2a144	-0.11065915
95	0xbd16d90a	-0.03682808
96	0xbcd0684f	-0.025440363
97	0x3de84e60	0.11343074
98	0x3d8850f2	0.06656064
99	0x3ca91db1	0.02064404
100	0xbd186c63	-0.03721274
101	0x3c97e1f1	0.018540354
102	0x3db4d97a	0.08830543
103	0xbda7a56c	-0.081858486
104	0x3db397de	0.08769201
105	0xbdf82efa	-0.12118335
106	0xbdab404e	-0.083618745
107	0xbd18ecab	-0.03733508
108	0x3df58d78	0.11989874
109	0x3cbb5c11	0.02287105
110	0x3de67388	0.112525046
111	0xbae81ced	-0.0017708816
112	0x3de14294	0.10999027
113	0x3d62a1bd	0.055330027
114	0x3b54bc8a	0.003246101
115	0xbdda70d2	-0.1066605
116	0xbcee673e	-0.029101964
117	0x3d909915	0.07060448
118	0x3c821d41	0.01588309
119	0xbd1454a3	-0.03621353
120	0x3ddc3a72	0.10753335
121	0xbce475ef	-0.027888266
122	0x3d31fca9	0.043453846
123	0xbd554dd7	-0.052076187
124	0x3d874ff2	0.06607045
125	0x3d05ce85	0.032667655
126	0x3dfc69d2	0.12324871
127	0x3cdb1039	0.026741134
128	0x3dfd7782	0.1237631
129	0x3d9002f6	0.07031815
130	0xbd831dd8	-0.064021766
131	0xbde9d446	-0.11417441
132	0x3cb8c9b8	0.022557124
133	0xbde0022a	-0.10937913
134	0xbda96a3e	-0.08272217
135	0xbdb9ecf2	-0.09078397
136	0xbb121e00	-0.0022295713
137	0xbd29b0a4	-0.041428223
138	0x3dd77b32	0.105215445
139	0x3d45d468	0.04829827
140	0xbdf15872	-0.11784448
141	0x3dd74d2e	0.10512768
142	0x3cdbef78	0.026847586
143	0xbdba49fe	-0.09096144
144	0xbd95f248	-0.07321602
145	0xbd9bd77a	-0.07609458
146	0xbdfa2630	-0.12214315
147	0x3d05bb84	0.032649532
148	0xbdc5b3fc	-0.0965347
149	0x3daf6408	0.08564001
150	0x3df91316	0.121618435
151	0xbdc2e958	-0.09517163
152	0x3cec27b0	0.028827518
153	0xbd7efef4	-0.06225486
154	0x3dc78620	0.09742379
155	0x3d4abd5c	0.049496993
156	0x3b6179c0	0.0034404844
157	0xbd318108	-0.043335944
158	0xbd080208	-0.033205062
159	0x3cb4ef80	0.022086859
160	0xbd836cc8	-0.06417233
161	0xbdf6a132	-0.12042464
162	0xbdced474	-0.10099116
163	0xbde1fd0a	-0.110345915
164	0x3d93a716	0.072096035
165	0xbdeb2b4e	-0.11482869
166	0xbdd626f0	-0.104566455
167	0x3d864d7e	0.06557749
168	0xbc998f68	-0.01874514
169	0xbdeefe72	-0.11669625
170	0x3d50ae48	0.050947458
171	0x3df9a528	0.12189704
172	0xbd4b43c0	-0.04962516
173	0xbde60148	-0.11230713
174	0xbded8e62	-0.11599423
175	0x3d6ce36c	0.057834074
176	0xbda13426	-0.07871275
177	0x3cb797b8	0.022411212
178	0x3d8a78c0	0.067613125
179	0xbdea6000	-0.11444092
180	0x3d72c364	0.05926837
181	0xbd4e04e8	-0.050297648
182	0xbd7a850c	-0.06116204
183	0x3d40ef90	0.047103465
184	0x3d5a8404	0.053348556
185	0xbd7fcd7c	-0.062451825
186	0xbddd6810	-0.10810864
187	0x3dc721c4	0.09723237
188	0x3d88ef04	0.066862136
189	0x3dbffd2c	0.093744606
190	0xbd61c464	-0.055118933
191	0x3d2fe598	0.042943567
192	0x3da44795	0.08021466
193	0x3d12e1d1	0.035859887
194	0xbd00df19	-0.031462763
195	0xbd8194be	-0.063271984
196	0x3df41e66	0.119198605
197	0x3b319200	0.002709508
198	0xbdd6e80c	-0.10493478
199	0x3db369e1	0.08760429
200	0xbdbf000c	-0.09326181
201	0xbb45daf5	-0.0030190323
202	0xbca998ce	-0.020702746
203	0xbdf0fdc9	-0.11767156
204	0xbdd43a43	-0.10362675
205	0xbddbbe2e	-0.10729633
206	0xbda8538d	-0.08219061
207	0x3dbec26f	0.09314429
208	0x3a023034	0.0004966289
209	0xbd195fe7	-0.037444975
210	0xbde39294	-0.11111942
211	0xbd326fa6	-0.043563507
212	0xbd9d0b1c	-0.076681346
213	0xbd8ffc58	-0.070305526
214	0x3daca979	0.08430762
215	0x3dd4dd38	0.10393757
216	0xbd7cdd96	-0.06173476
217	0xbaf328eb	-0.0018551623
218	0xb97b4800	-0.00023964047
219	0x3bfb1536	0.0076624407
220	0xbd072ed4	-0.033003643
221	0xbcfb34d3	-0.030664837
222	0x3dcb7363	0.09934118
223	0xbd3dabc6	-0.046306394
224	0x3ce6b0ab	0.028160414
225	0xbd81086f	-0.06300437
226	0x3d9c4c8e	0.07631789
227	0xbdf98fe9	-0.12185652
228	0x3bfb9ced	0.007678619
229	0xbde52bf3	-0.11190023
230	0x3db18a1b	0.0866892
231	0x3def4aa6	0.1168416
232	0xbd521b32	-0.051295467
233	0x3c343cf4	0.0110008605
234	0xbdd7f863	-0.10545423
235	0xbcf6108c	-0.030037187
236	0xbde9b5fe	-0.114116654
237	0x3d9f3b7b	0.07775017
238	0x3d4aa869	0.049477015
239	0x3c732b0c	0.014841806
240	0x3db7a109	0.08966262
241	0x3dfcdc97	0.12346762
242	0x3d5ed4da	0.05440221
243	0xbd882d7b	-0.066493
244	0xbd72a9bc	-0.059243903
245	0xbd4ad083	-0.04951526
246	0x3d441771	0.047873918
247	0xbdd0db6a	-0.101981
248	0xbdc2fb2a	-0.09520562
249	0xbdbb4ac7	-0.09145122
250	0xbd633348	-0.055468827
251	0x3dee29f7	0.11629098
252	0xbc970e2c	-0.018439375
253	0x3dc3033e	0.09522103
254	0x3d1e3941	0.03862882
255	0x3dcf72e7	0.10129338

fc2.bias f4 [64]
0	0x3d1ff189	0.039048705
1	0x3df70188	0.12060839
2	0xbcc693f0	-0.024240464
3	0xbddf155f	-0.10892748
4	0x3cac3c21	0.021024765
5	0xbdd4cdfa	-0.103908494
6	0x3da67b20	0.08128953
7	0xbc56c51d	-0.013108519
8	0xbddf9383	-0.109168075
9	0x3de51d7a	0.11187263
10	0xbdbff428	-0.09372741
11	0x3b7dcd40	0.0038727075
12	0x3d3c7b65	0.046016116
13	0x3bf49000	0.007463455
14	0xbb1580c0	-0.0022812337
15	0xbd5b0d75	-0.05347963
16	0x3cd3d347	0.02585758
17	0x3d46b919	0.048516367
18	0xbb1aae8c	-0.0023602573
19	0x3dc4b220	0.09604287
20	0x3de1b372	0.110205546
21	0xbdc360e6	-0.09539966
22	0xbd27be5c	-0.040953025
23	0x3dd73fe8	0.10510236
24	0xbd9ef8e6	-0.07762317
25	0x3daf701a	0.085663036
26	0x3cdde6a7	0.027087523
27	0x3df68a53	0.12038102
28	0xbbb22080	-0.005436003
29	0xbde44e46	-0.11147742
30	0x3dd6a9da	0.10481615
31	0xbd0d1b9c	-0.03445016
32	0x3de6168c	0.11234769
33	0xbdcd516a	-0.10025294
34	0x3ded4f7c	0.11587426
35	0x3da71cc5	0.08159784
36	0x3d2051af	0.0391404
37	0x3d0b81b8	0.034059256
38	0x3de0b1ee	0.109714374
39	0x3d933544	0.07187894
40	0x3db63e7a	0.08898635
41	0xbcd53c5f	-0.026029764
42	0x3dcada8a	0.09904964
43	0xbd776796	-0.06040152
44	0xbdca27f1	-0.098708995
45	0x3d1c96c1	0.038229708
46	0xbba5f2b7	-0.0050643343
47	0x3d28d7af	0.041221317
48	0x3df47463	0.119362615
49	0xbbcfa34d	-0.0063366056
50	0xbd4bcff2	-0.04975886
51	0x3d4e6e33	0.050398063
52	0x3d8d5e05	0.069026984
53	0x3d596fef	0.053085264
54	0xbda8a7a6	-0.082351014
55	0xbd8b7723	-0.06809833
56	0x3deb7a09	0.11497886
57	0x3d5f8e7b	0.05457924
58	0xbd2ce710	-0.042212546
59	0x3d2d1fe7	0.042266753
60	0x3daa19aa	0.08305676
61	0x3d97007a	0.07373138
62	0xbca72cd0	-0.02040711
63	0xbd45f4eb	-0.048329275

mu.weight f4 [1, 64]
0	0x3d05ad79	0.03263614
1	0x3d1216a5	0.035666127
2	0xbcdf17b0	-0.027232975
3	0xbdd8f7e0	-0.105941534
4	0x3d2b64bb	0.04184411
5	0x3d287527	0.04112735
6	0x3da5fa54	0.08104387
7	0x3de73c4e	0.11290799
8	0xbd97f3dc	-0.07419559
9	0x3db81760	0.089888334
10	0xbcae1457	-0.021249933
11	0xbd51d7e0	-0.051231265
12	0x3d8eee9a	0.069791034
13	0x3d5ac698	0.05341205
14	0xbda6234a	-0.081121996
15	0xbb342fcb	-0.0027494307
16	0xbd407e6b	-0.04699556
17	0xbc4ee0fe	-0.0126268845
18	0xbd35d293	-0.044390272
19	0x3c5b91ee	0.013401492
20	0x3d46fb5d	0.048579562
21	0xbda678a6	-0.081284806
22	0x3d5cbb40	0.053889513
23	0xbd07b035	-0.03312703
24	0xbddad50c	-0.10685167
25	0xbd4052f1	-0.0469541
26	0xbdb4aed4	-0.08822408
27	0xbce947d9	-0.028476642
28	0x3d0097d0	0.03139478
29	0x3d01b138	0.03166315
30	0xbbd895c5	-0.006609651
31	0x3c2a201d	0.010383633
32	0x3c1eb5a2	0.009686859
33	0xbdf61522	-0.120157495
34	0x3ddf1670	0.108929515
35	0xbd0e868d	-0.034796286
36	0x3dd31b46	0.10307936
37	0xbc699af0	-0.014258131
38	0xbcd77079	-0.026298748
39	0x3d4770ac	0.048691437
40	0x3dc2634e	0.09491597
41	0x3dbdb6c4	0.092633754
42	0xbd47cdb9	-0.048780177
43	0x3d29b5f9	0.04143331
44	0xbb970a9b	-0.0046094186
45	0xbcaf1f12	-0.02137712
46	0x3cd9620e	0.026536014
47	0xbcf456ef	-0.02982661
48	0xbcbb7e42	-0.022887353
49	0xbb61ef77	-0.0034475008
50	0x3d65a4db	0.05606542
51	0xbdd67076	-0.10470669
52	0xbd5f2869	-0.054481898
53	0x3d621e67	0.055204775
54	0x3d1e18b8	0.038597792
55	0xbd238acd	-0.039927293
56	0x3d0c6611	0.034277026
57	0xbdf37a22	-0.11888529
58	0x3dee5992	0.11638178
59	0xbdd43ca6	-0.1036313
60	0x3d334057	0.04376253
61	0x3de3b38a	0.11118229
62	0x3d2e97d8	0.04262528
63	0x3d939824	0.07206753

var.weight f4 [1, 64]
0	0xbda1b204	-0.07895282
1	0x3d97cea2	0.07412459
2	0x3d780ee8	0.06056109
3	0xbdbe2146	-0.0928369
4	0x3de6047a	0.112313226
5	0x3d4ea471	0.050449792
6	0x3c8edd22	0.017439429
7	0xbd05ce77	-0.032667603
8	0xbda165b8	-0.078807294
9	0x3d9a5c06	0.07537083
10	0xbd68cd53	-0.056836437
11	0x3d97962c	0.0740169
12	0x3db11d14	0.08648124
13	0xbd7eaed8	-0.062178463
14	0x3d24d0b0	0.040238082
15	0xbdb0ad3a	-0.0862679
16	0x3ddf8103	0.10913279
17	0x3d803ac4	0.06261209
18	0xbc78a7de	-0.015176741
19	0x3d88783e	0.066635594
20	0xbc3ead4d	-0.011637998
21	0x3cc19a91	0.023633273
22	0x3ca20cc8	0.019781485
23	0x3dad5afc	0.084646195
24	0x3dadd30a	0.08487518
25	0x3defa980	0.117022514
26	0xbd0f5d5b	-0.03500114
27	0xbcd6423f	-0.026154635
28	0xbde206b8	-0.11036438
29	0xbdf5c1a2	-0.11999823
30	0xbdcd5bea	-0.10027297
31	0x3b2f9d0a	0.0026796483
32	0xbd41c62b	-0.04730813
33	0x3c5cac45	0.013468807
34	0xbd340a9b	-0.043955427
35	0x3d2e14ce	0.04250031
36	0xbd64b323	-0.0558349
37	0xbd91cb9c	-0.071189135
38	0x3db575d8	0.088603675
39	0xbda11ce6	-0.0786684
40	0xbd91f6d2	-0.07127155
41	0xbd4c2dc3	-0.04984833
42	0x3dfd640e	0.123725995
43	0xbc81a8e1	-0.015827598
44	0xbbcdb55b	-0.006277723
45	0x3c9d8df9	0.019232737
46	0x3dd7f961	0.10545612
47	0xbc99c75f	-0.018771825
48	0xbd92ddb8	-0.07171196
49	0xbcb60bb7	-0.022222383
50	0x3d89ffd6	0.0673825
51	0xbca4bb96	-0.02010898
52	0xbd0ea4e7	-0.034825232
53	0xb98201ad	-0.0002479678
54	0xbda915a2	-0.08256079
55	0xbd8f7452	-0.07004608
56	0xbda363ac	-0.07977995
57	0xbda7f3ab	-0.08200773
58	0x3df4ad7a	0.119471505
59	0x3d93806b	0.07202228
60	0x3de492e8	0.11160833
61	0xbca1e59e	-0.01976281
62	0x3d931104	0.0718098
63	0x3d0cef0d	0.034407664
